latency-predictor/VGG16ConvDet/conv2_2_bias.npy (npy, 640 bytes, 1 tensors)

array f4 [128]
00000000: a573 83bd 56eb ecbd b33c 07be 9f41 793d
00000010: a8b3 893e 8170 d0bd 1ca7 6b3d f6d4 cfbc
00000020: 91f9 c83c 5485 2cbe 86d5 063e 027f 41bc
00000030: 2f33 8fbe 1623 8cbc e494 143e 220b 57be
00000040: ee31 cb3d a892 50bc 7392 d5bd 9a6a f23d
00000050: 8053 58be 0716 69be dbbf e33e 961c 273d
00000060: 5db3 9ebe c637 1cbd b700 86be 798f 483d
00000070: 665f 163e 69df c7bd 7fdf 24be cb33 a6bd
00000080: 4b77 833e c425 b93d 70f4 103d 119b 703e
00000090: dc67 18bf 9b70 8f3e 84ef b93c 39c6 1d3e
000000a0: 9765 dc3d 4f3b 1f3e caf5 8dbe c60b 153e
000000b0: 4c59 96bd 83af 0d3c 33e0 a9bd 9a75 253e
000000c0: eeea 31be a054 f6bb b418 85be f607 bf3d
000000d0: 54dd b73e 5dcd bcbd 43b6 a73d 614f 76be
000000e0: 9753 04be f189 98bc 4eda eebd a610 efbd
000000f0: 1b05 3abe 0cd3 283e 010f 44bd 4c24 34bd
00000100: 193e 123e cddd 893e d9b7 b63e 3fe1 103d
00000110: 09f9 37be 497b 493d f33d 223f b276 54be
00000120: 9e77 77bd 3eb2 f73d 451b b5bd 8e53 9abe
00000130: 9798 923e 3de2 de3d de94 143e 71d3 3bbd
00000140: 182d b5bd cfd1 0a3e f8d9 2b3e 12bf 8f3d
00000150: 3be5 dbbd 5f1a e53e 0a33 a6bd 0ad6 3fbd
00000160: 80be 3a3e 90c9 9cbc e148 aabc 6a64 c23e
00000170: 2007 993d 6d78 bebd 2733 9d3e 0002 7e3c
00000180: 64fa 203e 2938 3ebe 748d 9b3d 76eb 92be
00000190: 8b15 543e 19ed 6abe 90fd 323e 71d8 4f3e
000001a0: 4864 e2be c058 403d 4cbb 16be d7aa cabc
000001b0: 6248 183e 1b81 ac3b 119e a03b 9e13 34be
000001c0: 38e1 16bc dc6f 84be 5c95 4dbc c40d 4b3d
000001d0: 67ee 313e 77bf 9cbc 84b2 dabd 63ea 993c
000001e0: bf57 aabd a397 883d e6d3 2e3c c5b6 c13e
000001f0: 2afb ef3d 1d36 523e 4b1c 763e 67d6 8c3e
-0.06418542 -0.11568324 -0.13206749 0.060853597 0.2689488 -0.101777084 0.057532415 -0.025370102
0.024533065 -0.16847736 0.1316739 -0.011810066 -0.27968737 -0.017106574 0.14509922 -0.2100034
0.09921633 -0.012730278 -0.104283236 0.11836739 -0.21125603 -0.22762309 0.44482312 0.040798746
-0.30996218 -0.038139127 -0.2617242 0.04896495 0.14684829 -0.09759409 -0.16100882 -0.081153475
0.2567695 0.09040406 0.035389364 0.23496653 -0.59533477 0.280156 0.022697218 0.15407647
0.10761564 0.15549968 -0.27726585 0.14555272 -0.07341251 0.008647802 -0.08294716 0.16158143
-0.17374775 -0.0075174123 -0.2599541 0.0932769 0.35911047 -0.092188574 0.081890605 -0.24053718
-0.12922512 -0.018620463 -0.11662732 -0.11673097 -0.1816601 0.16486758 -0.04786587 -0.043979928
0.14281501 0.26927033 0.3568714 0.03537106 -0.17966093 0.04918984 0.63375777 -0.20748404
-0.06041681 0.12094544 -0.08843092 -0.30141872 0.28632042 0.10882995 0.14509913 -0.045855943
-0.088464916 0.13556598 0.16782367 0.07018866 -0.107370816 0.44746682 -0.08115204 -0.046834983
0.18236732 -0.019139081 -0.020786704 0.37967235 0.07472062 -0.09300313 0.3070309 0.0155034065
0.15720516 -0.18576111 0.075953394 -0.28695267 0.20711343 -0.22942008 0.17479539 0.2029741
-0.44217134 0.04695964 -0.14719886 -0.024739666 0.14871362 0.005264414 0.0049016555 -0.17585608
-0.00920897 -0.25866592 -0.012547817 0.049573675 0.173761 -0.019134266 -0.106785804 0.018788522
-0.083175175 0.066695474 0.010670638 0.37834755 0.117178276 0.20528455 0.2403423 0.27507326
