latency-predictor/VGG16ConvDet/Modelfiles/conv2_1_bias.npy (npy, 640 bytes, 1 tensors)

array f4 [128]
-0.04577766 0.06440781 -0.031368658 0.08691754 0.1278507 0.24616894 0.1640896 0.23979376
0.22164847 0.14246197 0.03313177 0.14955571 0.011550413 -0.00018516029 0.27014315 0.24461022
0.27350754 0.27142024 0.27011135 0.27027962 0.2216413 0.18953906 0.003979309 0.06151863
0.36547425 0.21779412 0.14007972 0.022691796 -0.014714201 0.06562144 0.3140623 -0.077050015
0.10462435 0.20993298 -0.0741003 -0.08588019 0.13652268 0.23663981 0.030105148 -0.0036816043
0.0076591093 0.3066435 0.1302302 0.004160701 0.2705581 0.25207508 0.28904697 0.12730265
0.28076398 -0.04476456 -0.042357225 0.062559925 0.10018661 -0.09962354 0.10176195 0.23699294
0.07842248 0.12831993 0.11392979 -0.013174531 -0.10383477 0.2286111 0.09195384 0.065147914
0.19676815 0.071536556 0.26198325 -0.06418952 0.04960755 -0.061662562 0.13248019 0.09023181
0.10324936 0.22680637 -0.033503436 -0.17922063 0.20180932 0.05230389 0.17740984 0.21679863
0.12819616 0.16143866 0.16376132 0.35884404 -0.05222311 0.21117201 0.14626507 0.10392818
0.23689806 -0.017589157 0.14187863 -0.15676373 0.055077035 0.17919958 0.19530067 0.049757544
0.14647865 0.15057972 0.04932106 0.22425601 0.028004406 0.04634406 0.05464241 0.32176018
-0.023094574 0.00514429 0.022401743 0.19448744 -0.009547225 0.256507 0.13772449 0.28766793
-0.00094692776 -0.008935273 0.07226797 0.019602686 0.25652054 -0.036785334 0.03289016 0.2673606
-0.10560317 0.0037151142 0.2806813 -0.08938356 0.06679128 0.3166792 0.09598574 0.13152032
00000000: 5b81 3bbd 3ee8 833d 6c7c 00bd d301 b23d
00000010: 4beb 023e b613 7c3e 1b07 283e 7f8c 753e
00000020: d1f7 623e 8de1 113e 2eb5 073d 2225 193e
00000030: f23d 3d3c 9627 42b9 3450 8a3e 1a7b 7a3e
00000040: 2e09 8c3e 98f7 8a3e 094c 8a3e 1762 8a3e
00000050: f0f5 623e 8716 423e dd64 823b f5fa 7b3d
00000060: 711f bb3e 6c05 5f3e 0f71 0f3e 25e4 b93c
00000070: d513 71bc 8964 863d c6cc a03e 66cc 9dbd
00000080: 4b45 d63d acf8 563e e6c1 97bd f4e1 afbd
00000090: 9acc 0b3e b551 723e 129f f63c 1247 71bb
000000a0: 44f9 fa3b 6000 9d3e 115b 053e 7d56 883b
000000b0: 9786 8a3e fc0f 813e f7fd 933e a05b 023e
000000c0: 4cc0 8f3e 0b5b 37bd c57e 2dbd 6b1f 803d
000000d0: a32e cd3d 6d07 ccbd 9268 d03d 47ae 723e
000000e0: f79b a03d 4d66 033e 0654 e93d fdd9 57bc
000000f0: 53a7 d4bd 0719 6a3e 4b52 bc3d 456c 853d
00000100: 977d 493e c281 923d ab22 863e cc75 83bd
00000110: 4931 4b3d e291 7cbd e3a8 073e 75cb b83d
00000120: 6774 d33d ee3f 683e e63a 09bd 9d85 37be
00000130: 1aa7 4e3e 9b3c 563d edaa 353e 7600 5e3e
00000140: db45 033e 2d50 253e 0cb1 273e 68ba b73e
00000150: e6e7 55bd 7a3d 583e 83c6 153e 4cd8 d43d
00000160: 6895 723e 2317 90bc a248 113e ac86 20be
00000170: 7598 613d 1880 373e e6fc 473e 91ce 4b3d
00000180: 80fe 153e 9231 1a3e e104 4a3d 5ea3 653e
00000190: 7f69 e53c 45d3 3d3d b8d0 5f3d c0bd a43e
000001a0: d530 bdbc 6f91 a83b dc83 b73c b727 473e
000001b0: f76b 1cbc e354 833e a607 0d3e 3649 933e
000001c0: 3f3b 78ba 4065 12bc 3b01 943d d095 a03c
000001d0: a956 833e 38ac 16bd d5b7 063d 7de3 883e
000001e0: 7a46 d8bd 4679 733b 76b5 8f3e ba0e b7bd
000001f0: dec9 883d c723 a23e 2c94 c43d 43ad 063e
